Neural Network Tools for STM32AI v1.6.0 (STM.ai v7.1.0-RC3)
Created date          : 2022-02-06 22:51:58
Parameters            : generate --name network_1644156729134 -m C:/Users/zbn02/Desktop/mnist_cnn.h5 --type keras --compression 8 --verbosity 1 --workspace C:\Users\zbn02\AppData\Local\Temp\mxAI_workspace469441468870018100870307276277753 --output C:\Users\zbn02\.stm32cubemx\network_1644156729134_output

Exec/report summary (generate)
------------------------------------------------------------------------------------------------------------------------
model file            : C:\Users\zbn02\Desktop\mnist_cnn.h5
type                  : keras
c_name                : network_1644156729134
compression           : 8
workspace dir         : C:\Users\zbn02\AppData\Local\Temp\mxAI_workspace469441468870018100870307276277753
output dir            : C:\Users\zbn02\.stm32cubemx\network_1644156729134_output
model_name            : mnist_cnn
model_hash            : 1f2fa0f4c57199d3637ed2791f12fd0b
input 1/1             : 'input_0'
                        784 items, 3.06 KiB, ai_float, float, (1,28,28,1), domain:user/
output 1/1            : 'dense_2'
                        10 items, 40 B, ai_float, float, (1,1,1,10), domain:user/
params #              : 1,199,882 items (4.58 MiB)
macc                  : 12,088,320
weights (ro)          : 670,824 B (655.10 KiB) / -4,128,704(-86.0%) vs original model (1 segment)
activations (rw)      : 102,144 B (99.75 KiB) (1 segment)
ram (total)           : 105,320 B (102.85 KiB) = 102,144 + 3,136 + 40

Model name - mnist_cnn ['input_0'] ['dense_2']
-------------------------------------------------------------------------------------------------------------------------------------------------------------------------
id   layer (type)               oshape            param/size            macc         connected to      |   c_size               c_macc             c_type               
-------------------------------------------------------------------------------------------------------------------------------------------------------------------------
0    input_0 (Input)            (None,28,28,1)                                                         |                                          
     conv2d_1_conv2d (Conv2D)   (None,26,26,32)   320/1,280             194,720      input_0           |                        +21,632(+11.1%)    conv2d()[0]          
     conv2d_1 (Nonlinearity)    (None,26,26,32)                         21,632       conv2d_1_conv2d   |                        -21,632(-100.0%)  
-------------------------------------------------------------------------------------------------------------------------------------------------------------------------
1    conv2d_2_conv2d (Conv2D)   (None,24,24,64)   18,496/73,984         10,616,896   conv2d_1          |                        +73,728(+0.7%)     optimized_conv2d()[1]
     conv2d_2 (Nonlinearity)    (None,24,24,64)                         36,864       conv2d_2_conv2d   |                        -36,864(-100.0%)  
-------------------------------------------------------------------------------------------------------------------------------------------------------------------------
2    max_pooling2d_1 (Pool)     (None,12,12,64)                         36,864       conv2d_2          |                        -36,864(-100.0%)  
-------------------------------------------------------------------------------------------------------------------------------------------------------------------------
4    flatten_1 (Reshape)        (None,1,1,9216)                                      max_pooling2d_1   |                                          
-------------------------------------------------------------------------------------------------------------------------------------------------------------------------
5    dense_1_dense (Dense)      (None,1,1,128)    1,179,776/4,719,104   1,179,776    flatten_1         |   -4,128,704(-87.5%)                      dense(c4)[2]         
     dense_1 (Nonlinearity)     (None,1,1,128)                          128          dense_1_dense     |                                           nl()[3]              
-------------------------------------------------------------------------------------------------------------------------------------------------------------------------
7    dense_2_dense (Dense)      (None,1,1,10)     1,290/5,160           1,290        dense_1           |                                           dense()[4]           
     dense_2 (Nonlinearity)     (None,1,1,10)                           150          dense_2_dense     |                                           nl()/o[5]            
-------------------------------------------------------------------------------------------------------------------------------------------------------------------------
model/c-model: macc=12,088,320/12,088,320  weights=4,799,528/670,824 -4,128,704(-86.0%) activations=--/102,144 io=--/3,176



Generated C-graph summary
------------------------------------------------------------------------------------------------------------------------
model name            : mnist_cnn
c-name                : network_1644156729134
c-node #              : 6
c-array #             : 16
activations size      : 102144 (1 segments)
weights size          : 670824 (1 segments)
macc                  : 12088320
inputs                : ['input_0_output']
outputs               : ['dense_2_output']

C-Arrays (16)
---------------------------------------------------------------------------------------------------------------
c_id   name (*_array)             item/size        domain/mem-pool           c-type        fmt         comment
---------------------------------------------------------------------------------------------------------------
0      input_0_output             784/3136         user/                     float         float       /input 
1      conv2d_1_conv2d_output     21632/86528      activations/**default**   float         float              
2      conv2d_2_conv2d_output     9216/36864       activations/**default**   float         float              
3      dense_1_dense_output       128/512          activations/**default**   float         float              
4      dense_1_output             128/512          activations/**default**   float         float              
5      dense_2_dense_output       10/40            activations/**default**   float         float              
6      dense_2_output             10/40            user/                     float         float       /output
7      conv2d_1_conv2d_weights    288/1152         weights/                  const float   float              
8      conv2d_1_conv2d_bias       32/128           weights/                  const float   float              
9      conv2d_2_conv2d_weights    18432/73728      weights/                  const float   float              
10     conv2d_2_conv2d_bias       64/256           weights/                  const float   float              
11     dense_1_dense_weights      1179648/589888   weights/                  const float   c4 (LUT4)          
12     dense_1_dense_bias         128/512          weights/                  const float   float              
13     dense_2_dense_weights      1280/5120        weights/                  const float   float              
14     dense_2_dense_bias         10/40            weights/                  const float   float              
15     conv2d_2_conv2d_scratch0   3072/12288       activations/**default**   float         float              
---------------------------------------------------------------------------------------------------------------

C-Layers (6)
-----------------------------------------------------------------------------------------------------------------------
c_id   name (*_layer)    id   layer_type         macc       rom      tensors                       shape (array id)   
-----------------------------------------------------------------------------------------------------------------------
0      conv2d_1_conv2d   0    conv2d             216352     1280     I: input_0_output             (1,28,28,1) (0)    
                                                                     W: conv2d_1_conv2d_weights    (1,32,3,3) (7)     
                                                                     W: conv2d_1_conv2d_bias       (1,1,1,32) (8)     
                                                                     O: conv2d_1_conv2d_output     (1,26,26,32) (1)   
-----------------------------------------------------------------------------------------------------------------------
1      conv2d_2_conv2d   2    optimized_conv2d   10690624   73984    I: conv2d_1_conv2d_output     (1,26,26,32) (1)   
                                                                     S: conv2d_2_conv2d_scratch0                      
                                                                     W: conv2d_2_conv2d_weights    (32,64,3,3) (9)    
                                                                     W: conv2d_2_conv2d_bias       (1,1,1,64) (10)    
                                                                     O: conv2d_2_conv2d_output     (1,12,12,64) (2)   
-----------------------------------------------------------------------------------------------------------------------
2      dense_1_dense     5    dense              1179776    590400   I: conv2d_2_conv2d_output0    (1,1,1,9216) (2)   
                                                                     W: dense_1_dense_weights      (9216,1,1,128) (11)
                                                                     W: dense_1_dense_bias         (1,1,1,128) (12)   
                                                                     O: dense_1_dense_output       (1,1,1,128) (3)    
-----------------------------------------------------------------------------------------------------------------------
3      dense_1           5    nl                 128        0        I: dense_1_dense_output       (1,1,1,128) (3)    
                                                                     O: dense_1_output             (1,1,1,128) (4)    
-----------------------------------------------------------------------------------------------------------------------
4      dense_2_dense     7    dense              1290       5160     I: dense_1_output             (1,1,1,128) (4)    
                                                                     W: dense_2_dense_weights      (128,1,1,10) (13)  
                                                                     W: dense_2_dense_bias         (1,1,1,10) (14)    
                                                                     O: dense_2_dense_output       (1,1,1,10) (5)     
-----------------------------------------------------------------------------------------------------------------------
5      dense_2           7    nl                 150        0        I: dense_2_dense_output       (1,1,1,10) (5)     
                                                                     O: dense_2_output             (1,1,1,10) (6)     
-----------------------------------------------------------------------------------------------------------------------



Complexity report per layer - macc=12,088,320 weights=670,824 act=102,144 ram_io=3,176
--------------------------------------------------------------------------------
id   name              c_macc                    c_rom                     c_id
--------------------------------------------------------------------------------
0    conv2d_1_conv2d   |                  1.8%   |                  0.2%   [0] 
1    conv2d_2_conv2d   ||||||||||||||||  88.4%   ||                11.0%   [1] 
5    dense_1_dense     ||                 9.8%   ||||||||||||||||  88.0%   [2] 
5    dense_1           |                  0.0%   |                  0.0%   [3] 
7    dense_2_dense     |                  0.0%   |                  0.8%   [4] 
7    dense_2           |                  0.0%   |                  0.0%   [5] 

Generated files (5)
-------------------------------------------------------------------------------------------------
C:\Users\zbn02\.stm32cubemx\network_1644156729134_output\network_1644156729134_config.h
C:\Users\zbn02\.stm32cubemx\network_1644156729134_output\network_1644156729134.h
C:\Users\zbn02\.stm32cubemx\network_1644156729134_output\network_1644156729134.c
C:\Users\zbn02\.stm32cubemx\network_1644156729134_output\network_1644156729134_data.h
C:\Users\zbn02\.stm32cubemx\network_1644156729134_output\network_1644156729134_data.c
